…
</pre></td><td class="code"><pre><span class="k">for</span> <span class="n">module</span> <span class="ow">in</span> <span class="n">head</span><span class="p">.</span><span class="nf">named_modules</span><span class="p">():</span> <span class="c1">#returns tuple
</span>    <span class="nf">print</span><span class="p">(</span><span class="sa">f</span><span class="sh">'</span><span class="s">Module:</span><span class="si">{</span><span class="n">module</span><span class="si">}</span><span class="sh">'</span><span class="p">)</span>
</pre></td></tr></tbody></table></code></pre></figure>

<div class="language-plaintext highlighter-rouge"><div class="highlight"><pre class="highlight"><code>Module:('', HEAD(
  (mlp): MLP(
    (w1): Linear(in_features=1, out_features=3, bias=True)
    (w2): Linear(in_features=3, out_features=3, bias=True)
    (w3): Linear(in_features=3, out_features=1, bias=True)
  )
  (w): Linear(in_features=1, out_features=1, bias=True)
))
Module:('mlp', MLP(
  (w1): Linear(in_features=1, out_features=3, bias=True)
  (w2): Linear(in_features=3, out_features=3, bias=True)
  (w3): Linear(in_features=3, out_features=1, bias=True)
))
Module:('mlp.w1', Linear(in_features=1, out_features=3, bias=True))
Module:('mlp.w2', Linear(in_features=3, out_features=3, bias=True))
Module:('mlp.w3', Linear(in_features=3, out_features=1, bias=True))
Module:('w', Linear(in_features=1, out_features=1, bias=True))
</code></pre></div></div>

<ul>
  <li>MLP is a module we created by deriving from <code class="language-plaintext highlighter-rouge">nn.Module</code></li>
…
<div class="language-python highlighter-rouge"><div class="highlight"><pre class="highlight"><code><span class="c1">#execute three times to coolect the output from forward the "out"
</span><span class="k">for</span> <span class="n">i</span> <span class="ow">in</span> <span class="nf">range</span><span class="p">(</span><span class="mi">3</span><span class="p">):</span>
    <span class="nf">mlp</span><span class="p">(</span><span class="n">x</span><span class="p">)</span>
</code></pre></div></div>

<div class="language-plaintext highlighter-rouge"><div class="highlight"><pre class="highlight"><code>MLP(
  (w1): Linear(in_features=1, out_features=3, bias=True)
  (w2): Linear(in_features=3, out_features=3, bias=True)
  (w3): Linear(in_features=3, out_features=1, bias=True)
) (tensor([1.]),) tensor([0.0551], grad_fn=&lt;ReluBackward0&gt;)
MLP(
  (w1): Linear(in_features=1, out_features=3, bias=True)
  (w2): Linear(in_features=3, out_features=3, bias=True)
  (w3): Linear(in_features=3, out_features=1, bias=True)
) (tensor([1.]),) tensor([0.0551], grad_fn=&lt;ReluBackward0&gt;)
MLP(
  (w1): Linear(in_features=1, out_features=3, bias=True)
  (w2): Linear(in_features=3, out_features=3, bias=True)
  (w3): Linear(in_features=3, out_features=1, bias=True)
) (tensor([1.]),) tensor([0.0551], grad_fn=&lt;ReluBackward0&gt;)
</code></pre></div></div>

<div class="language-python highlighter-rouge"><div class="highlight"><pre class="highlight"><code><span class="nf">print</span><span class="p">(</span><span class="n">out</span><span class="p">)</span>
</code></pre></div></div>

<div class="language-plaintext high
…
e child_name:w2, layer:Linear(in_features=3, out_features=3, bias=True) True False child_name:w3, layer:Linear(in_features=3, out_features=1, bias=True) True False Now let’s look at the children of the head module 1 2 head = HEAD() print(head(x)) tensor([-0.8912], grad_fn=&lt;AddBackward0&gt;) Immediate children of the head module are the MLP module alone, What? Why? 1 2 3 4 for child_name,layer in head.named_children(): #head module as root print(f'child_name:{child_name},\t layer:{layer}') print(isinstance(layer,nn.Linear)) print(isinstance(layer,nn.Embedding)) child_name:mlp, layer:MLP( (w1): Linear(in_features=1, out_features=3, bias=True) (w2): Linear(in_features=3, out_features=3, bias=True) (w3): Linear(in_features=3, out_features=1, bias=True) ) False False Observations Adding parameters via nn.Parameters() is not considered as child (obvious) Only the Modules are considered as child Let’s replace nn.Parameter by nn.Linear and see what happens 1 2 3 4 5 6 7 8 9 10 11 class HEAD(nn.Module): def __init__(self): super().__init__() self.mlp = MLP(1,3,3,1) # add mlp here self.w = nn.Linear(1,1,bias=True) # using linear layer def forward(self,x): out = self.mlp(x) out = self.w(x) return out head = HEAD() print(head(x)) tensor([0.4823], grad_fn=&lt;AddBackward0&gt;) Immediate children of the head module are MLP and Linear modules 1 2 3 4 for child_name,layer in head.named_children(): # head module as root print(f'child_name:{child_name},\t layer:{layer}') print(isinstance(layer,nn.Linear)) print(isinstance(layer,nn.Embedding)) child_name:mlp, layer:MLP( (w1): Linear(in_features=1, out_features=3, bias=True) (w2): Linear(in_features=3, out_features=3, bias=True) (w3): Linear(in_features=3, out_features=1, bias=True) ) False False child_name:w, layer:Linear(in_features=1, out_features=1, bias=True) True False We can use named_children as well if we want the name of the child module. Named modules What does the named_modules return? How does it differes from children? It returns all the nn.modules in the tree recursively by default (again, nn.Parameters will be ignored) The name for the root module is ‘’ and all the submodules will have their respective names If we do not want the name of the module, just use the method .modules() 1 2 for module in mlp.named_modules(): #returns tuple print(f'Module:{module}') Module:('', MLP( (w1): Linear(in_features=1, out_features=3, bias=True) (w2): Linear(in_features=3, out_features=3, bias=True) (w3): Linear(in_features=3, out_features=1, bias=True) )) Module:('w1', Linear(in_features=1, out_features=3, bias=True)) Module:('w2', Linear(in_features=3, out_features=3, bias=True)) Module:('w3', Linear(in_features=3, out_features=1, bias=True)) 1 2 for module in head.named_modules(): #returns tuple print(f'Module:{module}') Module:('', HEAD( (mlp): MLP( (w1): Linear(in_features=1, out_features=3, bias=True) (w2): Linear(in_features=3, out_features=3, bias=True) (w3): Linear(in_features=3, out_features=1, bias=True) ) (w): Linear(in_features=1, out_features=1, bias=True) )) Module:('mlp', MLP( (w1): Linear(in_features=1, out_features=3, bias=True) (w2): Linear(in_features=3, out_features=3, bias=True) (w3): Linear(in_features=3, out_features=1, bias=True) )) Module:('mlp.w1', Linear(in_features=1, out_features=3, bias=True)) Module:('mlp.w2', Linear(in_features=3, out_features=3, bias=True)) Module:('mlp.w3', Linear(in_features=3, out_features=1, bias=True)) Module:('w', Linear(in_features=1, out_features=1, bias=True)) MLP is a module we created by deriving from nn.Module Linear is also a module created by
…
k at the signature of various hooks We can register more than one hook for the same Module Signature: hook(module, input, output) -&gt; None or modified output doc 1 2 3 4 5 6 7 out = [] def forward_hook_1(module,input,output): ## we can do whatever we want like storing, printing, tracking.. print(module,input,output) def forward_hook_2(module,input,output): out.append(output) 1 2 handle_hook_1 = mlp.register_forward_hook(forward_hook_1) handle_hook_2 = mlp.register_forward_hook(forward_hook_2) #execute three times to coolect the output from forward the "out" for i in range(3): mlp(x) MLP( (w1): Linear(in_features=1, out_features=3, bias=True) (w2): Linear(in_features=3, out_features=3, bias=True) (w3): Linear(in_features=3, out_features=1, bias=True) ) (tensor([1.]),) tensor([0.0551], grad_fn=&lt;ReluBackward0&gt;) MLP( (w1): Linear(in_features=1, out_features=3, bias=True) (w2): Linear(in_features=3, out_features=3, bias=True) (w3): Linear(in_features=3, out_features=1, bias=True) ) (tensor([1.]),) tensor([0.0551], grad_fn=&lt;ReluBackward0&gt;) MLP( (w1): Linear(in_features=1, out_features=3, bias=True) (w2): Linear(in_features=3, out_features=3, bias=True) (w3): Linear(in_features=3, out_features=1, bias=True) ) (tensor([1.]),) tensor([0.0551], grad_fn=&lt;ReluBackward0&gt;) print(out) [tensor([0.0551], grad_fn=&lt;ReluBackward0&gt;), tensor([0.0551], grad_fn=&lt;ReluBackward0&gt;), tensor([0.0551], grad_fn=&lt;ReluBackward0&gt;), tensor([0.0551], grad_fn=&lt;ReluBackward0&gt;), tensor([0.0551], grad_fn=&lt;ReluBackward0&gt;)] How do we remove the hook? 1 2 hand
…
